### Model Setup ###
2024-11-21 14:41:38.175798
Qwen2VLForConditionalGeneration(
  (visual): Qwen2VisionTransformerPretrainedModel(
    (patch_embed): PatchEmbed(
      (proj): Conv3d(3, 1280, kernel_size=(2, 14, 14), stride=(2, 14, 14), bias=False)
    )
    (rotary_pos_emb): VisionRotaryEmbedding()
    (blocks): ModuleList(
      (0-31): 32 x Qwen2VLVisionBlock(
        (norm1): LayerNorm((1280,), eps=1e-06, elementwise_affine=True)
        (norm2): LayerNorm((1280,), eps=1e-06, elementwise_affine=True)
        (attn): VisionSdpaAttention(
          (qkv): Linear(in_features=1280, out_features=3840, bias=True)
          (proj): Linear(in_features=1280, out_features=1280, bias=True)
        )
        (mlp): VisionMlp(
          (fc1): Linear(in_features=1280, out_features=5120, bias=True)
          (act): QuickGELUActivation()
          (fc2): Linear(in_features=5120, out_features=1280, bias=True)
        )
      )
    )
    (merger): PatchMerger(
      (ln_q): LayerNorm((1280,), eps=1e-06, elementwise_affine=True)
      (mlp): Sequential(
        (0): Linear(in_features=5120, out_features=5120, bias=True)
        (1): GELU(approximate='none')
        (2): Linear(in_features=5120, out_features=1536, bias=True)
      )
    )
  )
  (model): Qwen2VLModel(
    (embed_tokens): Embedding(151936, 1536)
    (layers): ModuleList(
      (0-27): 28 x Qwen2VLDecoderLayer(
        (self_attn): Qwen2VLSdpaAttention(
          (q_proj): lora.Linear(
            (base_layer): Linear(in_features=1536, out_features=1536, bias=True)
            (lora_dropout): ModuleDict(
              (default): Identity()
            )
            (lora_A): ModuleDict(
              (default): Linear(in_features=1536, out_features=8, bias=False)
            )
            (lora_B): ModuleDict(
              (default): Linear(in_features=8, out_features=1536, bias=False)
            )
            (lora_embedding_A): ParameterDict()
            (lora_embedding_B): ParameterDict()
            (lora_magnitude_vector): ModuleDict()
          )
          (k_proj): lora.Linear(
            (base_layer): Linear(in_features=1536, out_features=256, bias=True)
            (lora_dropout): ModuleDict(
              (default): Identity()
            )
            (lora_A): ModuleDict(
              (default): Linear(in_features=1536, out_features=8, bias=False)
            )
            (lora_B): ModuleDict(
              (default): Linear(in_features=8, out_features=256, bias=False)
            )
            (lora_embedding_A): ParameterDict()
            (lora_embedding_B): ParameterDict()
            (lora_magnitude_vector): ModuleDict()
          )
          (v_proj): lora.Linear(
            (base_layer): Linear(in_features=1536, out_features=256, bias=True)
            (lora_dropout): ModuleDict(
              (default): Identity()
            )
            (lora_A): ModuleDict(
              (default): Linear(in_features=1536, out_features=8, bias=False)
            )
            (lora_B): ModuleDict(
              (default): Linear(in_features=8, out_features=256, bias=False)
            )
            (lora_embedding_A): ParameterDict()
            (lora_embedding_B): ParameterDict()
            (lora_magnitude_vector): ModuleDict()
          )
          (o_proj): lora.Linear(
            (base_layer): Linear(in_features=1536, out_features=1536, bias=False)
            (lora_dropout): ModuleDict(
              (default): Identity()
            )
            (lora_A): ModuleDict(
              (default): Linear(in_features=1536, out_features=8, bias=False)
            )
            (lora_B): ModuleDict(
              (default): Linear(in_features=8, out_features=1536, bias=False)
            )
            (lora_embedding_A): ParameterDict()
            (lora_embedding_B): ParameterDict()
            (lora_magnitude_vector): ModuleDict()
          )
          (rotary_emb): Qwen2VLRotaryEmbedding()
        )
        (mlp): Qwen2MLP(
          (gate_proj): lora.Linear(
            (base_layer): Linear(in_features=1536, out_features=8960, bias=False)
            (lora_dropout): ModuleDict(
              (default): Identity()
            )
            (lora_A): ModuleDict(
              (default): Linear(in_features=1536, out_features=8, bias=False)
            )
            (lora_B): ModuleDict(
              (default): Linear(in_features=8, out_features=8960, bias=False)
            )
            (lora_embedding_A): ParameterDict()
            (lora_embedding_B): ParameterDict()
            (lora_magnitude_vector): ModuleDict()
          )
          (up_proj): lora.Linear(
            (base_layer): Linear(in_features=1536, out_features=8960, bias=False)
            (lora_dropout): ModuleDict(
              (default): Identity()
            )
            (lora_A): ModuleDict(
              (default): Linear(in_features=1536, out_features=8, bias=False)
            )
            (lora_B): ModuleDict(
              (default): Linear(in_features=8, out_features=8960, bias=False)
            )
            (lora_embedding_A): ParameterDict()
            (lora_embedding_B): ParameterDict()
            (lora_magnitude_vector): ModuleDict()
          )
          (down_proj): lora.Linear(
            (base_layer): Linear(in_features=8960, out_features=1536, bias=False)
            (lora_dropout): ModuleDict(
              (default): Identity()
            )
            (lora_A): ModuleDict(
              (default): Linear(in_features=8960, out_features=8, bias=False)
            )
            (lora_B): ModuleDict(
              (default): Linear(in_features=8, out_features=1536, bias=False)
            )
            (lora_embedding_A): ParameterDict()
            (lora_embedding_B): ParameterDict()
            (lora_magnitude_vector): ModuleDict()
          )
          (act_fn): SiLU()
        )
        (input_layernorm): Qwen2RMSNorm((1536,), eps=1e-06)
        (post_attention_layernorm): Qwen2RMSNorm((1536,), eps=1e-06)
      )
    )
    (norm): Qwen2RMSNorm((1536,), eps=1e-06)
    (rotary_emb): Qwen2VLRotaryEmbedding()
  )
  (lm_head): Linear(in_features=1536, out_features=151936, bias=False)
)
number of validation examples: 296
number of test examples: 2069
### Running Generation ###
2024-11-21 14:41:44.469555
Generating for validation, 1 of 296
attempt generation, try 1
Generated text
{"bone": "No acute bony abnormality.", "heart": "Cardiac contours are within normal limits.", "lung": "No focal consolidation, pleural effusion, or pneumothorax.", "mediastinal": "Mediastinal contours are within normal limits.", "others": ""}
…
